models/model_heat_nn.pt (torch, 40993 bytes, 8 tensors)

shared.0.weight f4 [64, 2]
000000 ab 36 29 3f 37 a0 08 bf 5d 1d 03 bf 91 4d 9f 3d
       0.6609904 -0.5336947 -0.5121668 0.077784665
000010 35 32 56 3e 7a 04 a4 be fd e3 1e 3f f7 93 91 3c
       0.2091759 -0.32034665 0.6206663 0.01777075
000020 11 c4 26 bf e9 6f 4b 3d ce 7b 65 be 6c 7e 42 bf
       -0.65142924 0.049667273 -0.22410509 -0.75974154
000030 cf c7 2d 3f c2 1d fb 3e a3 d2 e7 be 16 80 96 bd
       0.6788301 0.4904614 -0.4527789 -0.07348649
000040 77 2e 0d be 2a 08 05 bf 5a 10 4b bf 1b 40 83 3d
       -0.13787256 -0.5196558 -0.79321826 0.064087115
000050 3a ee 45 bf 60 88 e2 be 1f 85 fa 3d 2e 50 17 bf
       -0.7731663 -0.4424467 0.12232422 -0.5910672
000060 38 f1 0a 3f ea e0 7d be 23 23 14 3f dc dc bc 3c
       0.5427432 -0.24792829 0.57866114 0.023054533
000070 20 8e 65 be 81 c7 ec 3d bc cd 20 3e 8f b3 48 bf
       -0.22417498 0.1156149 0.15703481 -0.78398985
000080 e1 62 ad 3d 37 f6 f0 be c4 27 44 3e 71 40 33 bf
       0.08466125 -0.47062847 0.19155794 -0.70020205
000090 3c bf 3c bf e5 bd 5b 3d 5b dd 01 3f 64 f3 c8 be
       -0.737293 0.053647894 0.50728387 -0.39248192
0000a0 da e7 d0 be 6f 06 ac 3d c2 c6 4d bf af ab d4 3e
       -0.4080189 0.083996646 -0.80381405 0.41537234
0000b0 bf c5 2e bf bd 69 c9 3e d6 1f e5 3d 94 3d 05 3f
       -0.68270487 0.39338484 0.11187713 0.52047086
0000c0 94 15 44 3e 40 a3 31 bf f7 fa 99 3c 13 e3 2d 3f
       0.19148856 -0.69389725 0.018796427 0.6792461
0000d0 c7 3f 86 3d 36 67 bf 3e f8 0b 24 3f 72 20 0e 3d
       0.06555133 0.3738343 0.6408076 0.03469891
0000e0 34 d0 b3 bd 98 7a ec 3e 01 3c 72 3e 16 a3 00 bf
       -0.08779946 0.46187282 0.23655702 -0.5024885
0000f0 e4 32 30 3c 71 c4 0c bf c5 ab 52 3e 01 73 33 bf
       0.010754321 -0.54987246 0.20573337 -0.7009736
000100 21 b6 7a be 95 e6 51 bf eb 34 0a 3e e9 d6 32 3f
       -0.24483539 -0.81992465 0.13496749 0.69859177
000110 1f c0 29 bc e3 c8 79 3e 2c 2c af 3e 84 a3 cf bd
       -0.010360747 0.24393038 0.34213388 -0.1013861
000120 29 15 27 3f 62 7e 26 3f ec d9 bd bc f5 07 83 be
       0.6526666 0.65036595 -0.023175202 -0.25592008
000130 d8 b2 04 3d f4 7c 3f 3f e1 3e 41 bf cd 0c 64 bc
       0.03239712 0.7480004 -0.7548657 -0.013919068
000140 66 c7 32 be 1d 2d 4f 3e 33 17 92 be a4 04 1c 3f
       -0.17458877 0.20232053 -0.28533325 0.6094458
000150 61 73 e4 3e 05 05 02 bf ca df 2e 3d 11 1e 1a 3f
       0.44619277 -0.5078891 0.04269389 0.6020213
000160 0c e9 09 3f 2d 21 1c 3f c2 d4 1b 3f 8d ba 05 bf
       0.53871226 0.6098812 0.6087152 -0.5223778
000170 da e8 03 bd 18 0b 63 3e f1 e5 12 3f 5b 15 2b 3c
       -0.032204486 0.221722 0.5738211 0.010442103
000180 9a c9 10 bf 8b df 8e 3e f8 09 89 3e 7c 0a 41 bf
       -0.5655762 0.27904925 0.26765418 -0.7540662
000190 ce 39 69 3e 8c 77 44 bf 00 d7 23 bf bd 0d e2 3e
       0.22775957 -0.76744914 -0.6399994 0.44151106
0001a0 a2 e8 fc 3e 95 18 c3 be be ae 62 3f f7 76 32 3d
       0.49396235 -0.38104692 0.88547885 0.043570485
0001b0 5f 66 37 3d e8 57 32 3f 3f 61 68 3d 52 25 20 3e
       0.044775363 0.69665384 0.056733366 0.15639237
0001c0 8e 21 1e bf c6 c1 59 3e 43 44 6b bf 40 f1 be 3d
       -0.6176995 0.21265325 -0.91901034 0.093233585
0001d0 1b 68 2c bf 69 d6 1b bf 5d a6 de 3e 2f 93 bc be
       -0.6734635 -0.6087404 0.434863 -0.36831042
0001e0 e9 52 45 3e 36 58 df bd 05 94 3a 3d 8d 42 64 3e
       0.19269909 -0.10905497 0.04555132 0.22291012
0001f0 16 2b 24 3f 13 52 31 3f bf 4a 16 bf b8 92 84 bd
       0.64128244 0.6926586 -0.58707803 -0.06473297

shared.0.bias f4 [64]
000000 0e 7f ac 3e 81 7f e7 be 44 03 d5 3e a3 80 f4 3e
       0.33690685 -0.45214465 0.41604054 0.47754392
000010 e3 46 12 bf 95 7c 98 bd c0 f4 3e 3d e3 88 30 be
       -0.57139415 -0.07445637 0.04662013 -0.17239718
000020 d1 1d 90 3e 1c fb 2d bf ba 8b 19 bf 21 41 e2 be
       0.28147748 -0.6796129 -0.5997883 -0.44190314
000030 42 ca 4a be 11 23 e2 3e 96 e1 b0 bd 6f d0 19 bf
       -0.19803718 0.4416738 -0.08636777 -0.6008367
000040 51 fb 9b be f6 b1 04 bf e1 82 1f bf 38 02 80 3e
       -0.30465177 -0.51834047 -0.6230908 0.25001693
000050 27 b6 bb be 62 ea d9 be be 32 83 be b5 4a e1 3e
       -0.3666241 -0.42561632 -0.2562465 0.4400231
000060 0b 15 10 bf d6 fe ff 3e bb 0e b1 3e a4 42 00 3f
       -0.5628211 0.49999112 0.3458155 0.50101686
000070 e0 f8 9d be 1f 3f 10 3f 30 93 ba 3e f4 13 0f bf
       -0.3085394 0.56346315 0.3644042 -0.5588982
000080 e9 e0 05 be b4 ea 16 3f 16 88 32 3e 14 86 c9 3e
       -0.13074078 0.5895188 0.17434725 0.39360106
000090 e3 99 e0 be cd 9b 2c 3e 61 73 17 3f 2a f3 08 bf
       -0.43867406 0.16856308 0.5916043 -0.5349604
0000a0 a5 2f 1e bf 02 4c 07 bf 37 c8 a4 3d 9f 56 01 3f
       -0.6179145 -0.52850354 0.080460005 0.505228
0000b0 09 c2 5f be 9b ef bb 3e 12 59 81 3e f4 7f e0 3e
       -0.21851362 0.36706242 0.25263268 0.4384762
0000c0 fa 07 83 be 31 9a 02 bf e5 b4 16 bf 25 39 40 be
       -0.25592023 -0.5101653 -0.58869773 -0.18771799
0000d0 fc 8f 81 3e 30 fb 28 3f 9d ae 0f 3f 6f c8 bf be
       0.25305164 0.6600828 0.56125814 -0.37457606
0000e0 78 bb 19 bf 3b c2 4b bf 30 a0 e9 be cd eb 79 3e
       -0.6005168 -0.7959325 -0.45630026 0.24406357
0000f0 15 0b 26 bf 0b 43 31 3e de 7a 61 be 24 98 b7 be
       -0.6486066 0.17310731 -0.22019526 -0.35858262

shared.3.weight f4 [128, 64]
000000 e9 a1 76 3d 81 ad 5d bf ff f2 0d 3e 09 51 ef 3d
       0.060213003 -0.8659287 0.13862227 0.11685378
000010 90 58 f3 bf 29 ee f3 3d 77 3f 20 bd ae 8a 86 be
       -1.9011402 0.1191066 -0.039123025 -0.2627768
000020 11 fe 84 3d 1c d3 cb bf cc 2b 81 bf b1 96 8b bf
       0.06493772 -1.59238 -1.0091491 -1.0905362
000030 4b bf 83 be 65 79 97 3d a3 84 b7 3b 3f bd 1c bf
       -0.25731882 0.07396201 0.0056005283 -0.61226267
000040 74 30 23 bf 82 74 ed be 95 e5 c9 bf 11 42 2d 3d
       -0.6374581 -0.4637795 -1.5773188 0.042299334
000050 71 f9 08 bf 66 98 09 be 10 5e 66 bd 14 57 6b 3d
       -0.5350562 -0.13437042 -0.05624205 0.05745609
000060 82 0a 1c bf 7f 56 06 bd ec c2 24 3e 35 d7 35 3d
       -0.60953534 -0.032797333 0.16089982 0.04439469
000070 2d 68 e2 bd c3 00 e0 3d 33 2a 22 3c 9f e3 eb be
       -0.11055026 0.10937645 0.009897756 -0.460721
000080 da 2e 5e 3d db a1 91 3d 6d 91 e5 bc 17 5a 39 3c
       0.0542439 0.071109496 -0.028023446 0.011312983
000090 05 e2 9e 3e 00 41 0b 3e 40 21 11 3e 61 1d 5f bf
       0.31031814 0.13599014 0.1417284 -0.87154204
0000a0 3e aa 8b bd 79 29 6e 3d ff 10 2e 3d 40 56 b9 3d
       -0.068195805 0.05814502 0.042496677 0.09049654
0000b0 96 54 0b 3e 8d 35 18 3e 50 5f 11 3e e8 ea 27 3e
       0.13606486 0.14864178 0.14196515 0.16398203
0000c0 e2 48 fb bd 00 ae ca be 21 d7 47 be db a0 de bd
       -0.12269761 -0.39585876 -0.19515659 -0.108705245
0000d0 10 78 61 3d 88 99 cc 3d d3 74 d0 3d 18 4c a9 3c
       0.05504614 0.09990221 0.101785325 0.020666167
0000e0 6a 68 84 be d2 5e 4d bf c9 7e ea be fc d7 4b 3d
       -0.25860912 -0.8022281 -0.45799854 0.049766526
0000f0 80 3f a5 3d d4 bc 6b 3d f5 8c 4c 3e 4b cd dc be
       0.08068752 0.057553127 0.19975646 -0.43125376
000100 21 c2 e5 bc 63 99 ec bd 57 b2 28 3e f8 b2 c6 3a
       -0.02804667 -0.11552694 0.16474281 0.0015159538
000110 f5 1d ab 3d 24 a5 97 3e e3 12 90 bd f0 fa 39 bc
       0.08355323 0.2961818 -0.07034852 -0.011351332
000120 22 3d fd 3d 62 49 89 3e 14 89 3d 3e a8 dd 8e 3e
       0.12365176 0.268138 0.18509322 0.27903485
000130 5e 40 a6 3d 59 3b 0d bd 6b 6b 2d be 6f 1a 00 3f
       0.08117746 -0.034480426 -0.16935508 0.50040334
000140 79 ad 11 3f 85 f6 de 3e 50 b1 12 bd 34 c2 ef bc
       0.56905323 0.43547454 -0.03581363 -0.029267408
000150 f9 0b 35 be c4 1c 4b bf 83 6e 2f bf 0b a6 1f bf
       -0.17680348 -0.7934077 -0.68528 -0.62362736
000160 f4 db 6a 3e 4f 73 2e bf 8a 08 24 bf b3 59 a4 3d
       0.22935468 -0.68144697 -0.6407553 0.08024921
000170 14 8a 4e 3d c6 8b 1f 3d 3f 10 95 3d 4c cc c2 3e
       0.05042465 0.038951658 0.07278489 0.3804649
000180 68 18 a5 3e bc cd 82 be a1 4c 0c be a1 5a 87 b9
       0.32245183 -0.25547588 -0.13701107 -0.0002581673
000190 fa 12 da be 94 b7 26 3d bd 75 47 bf 0e e5 8b 3e
       -0.42592603 0.040702417 -0.7791403 0.27323192
0001a0 e8 e8 93 3c 62 42 17 3d 07 1f 11 3e dc 29 4d bf
       0.018055394 0.036928542 0.14171992 -0.80142
0001b0 8a 5e b9 be 78 3f 02 3d 53 9f 96 be 5b 20 7b bd
       -0.3620494 0.03179881 -0.2941843 -0.061310153
0001c0 07 f5 f4 be 43 69 d1 3e b0 a9 88 3e bc 7b 45 bf
       -0.4784319 0.4090062 0.2669196 -0.7714193
0001d0 19 df fb bc 57 37 02 bd d7 8f 83 bf 34 06 da bd
       -0.03074603 -0.031791057 -1.0278271 -0.106457144
0001e0 d5 2a 41 be b7 ac 20 3b 1c a9 0a 3e 14 b0 91 3d
       -0.18863995 0.0024517009 0.13541073 0.07113662
0001f0 8c e0 16 3d fa eb e8 be da 60 83 be cf 29 80 3e
       0.03683524 -0.45492536 -0.2565983 0.25031897
000200 75 ce 81 3e 4d 9c 35 bf d2 6b 43 bd 50 4d 60 3f
       0.25352827 -0.7094162 -0.047710247 0.8761797
000210 4b 5c c1 bf 55 21 a4 be 99 72 8e 3e 5c 2c d2 bd
       -1.510629 -0.3205668 0.27821806 -0.10262367
000220 78 39 09 b9 cc b3 b4 bf 66 88 08 bf 31 3a 0d bd
       -0.00013086747 -1.411737 -0.5333313 -0.034479324
000230 7c 55 15 bd 7a 3f 55 3f 4b 31 9b bc 7c 73 ee 3c
       -0.036458477 0.8329998 -0.018944403 0.029107802
000240 97 35 9f 3d 5c d0 0e 3e fb bb b4 bf 04 97 50 3e
       0.07773893 0.1394667 -1.4119867 0.20370108
000250 c1 89 b3 be 93 5a 8f 3c e4 6c d6 bb fd 6b 87 3d
       -0.35066035 0.017499244 -0.0065437425 0.06612394
000260 f3 16 55 3e e8 5e 1d 3c 7c 53 a5 3d de 43 64 3f
       0.20809536 0.009605147 0.08072564 0.8916606
000270 39 f4 5a bd 43 79 aa 3c df 60 ae bd 1a 8d ba bd
       -0.053455565 0.020809775 -0.085145704 -0.09108944
000280 3c 9d 5c be 9f 4d 18 bd d2 3f 25 bc 9f 39 30 3d
       -0.21544355 -0.0371834 -0.010086017 0.0430237
000290 e8 7e 89 3e cf f1 f8 bb 55 99 dc 3c 33 77 c4 be
       0.26854634 -0.007597185 0.026928583 -0.38372192
0002a0 7e a0 70 3d 4f 8c a2 bd d2 54 5a 3d 40 a1 da bc
       0.058746807 -0.07936918 0.053303547 -0.026688218
0002b0 84 a8 bf 3d 41 6b d5 3e e5 3f b6 ba bb c7 64 3f
       0.09358314 0.4168339 -0.001390454 0.89367265
0002c0 db ca 2f 3d 29 55 2b bd 7a c6 2c be 17 a3 fc bc
       0.042918067 -0.041829262 -0.16872588 -0.030839486
0002d0 6b b1 e6 3e 65 ae 7f 3f 40 be f9 bc c4 fe 16 bd
       0.45057234 0.9987548 -0.030486226 -0.036864057
0002e0 10 75 18 be 10 3a 52 bf 4b 9e e1 be e5 87 1c 3e
       -0.14888406 -0.82119846 -0.4406608 0.15286215
0002f0 f0 e5 5b bc 46 24 9a bd 29 b5 7f 3e 29 ae 5a bd
       -0.013421521 -0.0752645 0.24971451 -0.05338875
000300 11 66 d9 be fc 60 0a 3e 24 33 7f 3c ca 46 87 bf
       -0.42460683 0.13513559 0.015576158 -1.0568478
000310 1b 0d 2f 3e 62 75 2d 3d 12 18 d4 be e0 b2 50 3e
       0.17094843 0.042348273 -0.41424614 0.20380735
000320 80 9f 5d 3c b9 65 48 3e 1e 3a 4e 3e 41 15 15 3d
       0.013526797 0.19570054 0.20139357 0.036397222
000330 28 89 a9 3d f5 47 7e bf fd 20 6b bc fa f0 4a be
       0.082781136 -0.9932855 -0.014351127 -0.19818488
000340 f9 74 14 bf 46 12 0f be 0d ca 35 3e 49 c4 38 bf
       -0.57990986 -0.13971815 0.17752858 -0.7217451
000350 54 25 e6 bd d6 0e 9a bd 89 81 c7 bd eb fd 22 bc
       -0.112375885 -0.07522361 -0.09741504 -0.009948234
000360 70 18 3b be bc bf 0b bc f8 0c 80 3d c6 e1 98 bf
       -0.18271041 -0.0085296 0.062524736 -1.19439
000370 a6 5c e3 3d 6d 26 c8 3d 99 db e9 3c 39 0f d0 be
       0.11101656 0.09772954 0.028547095 -0.40636614
000380 f3 18 fd bc 14 73 9b bd e8 a0 c8 bd 60 86 96 bd
       -0.030895686 -0.07590309 -0.097963154 -0.07349849
000390 fa 15 2a be 24 b2 4c 3e 51 f0 d9 ba d4 4c 0e 3e
       -0.16609946 0.1998983 -0.0016627406 0.13896495
0003a0 dc fc 9e bd 5b 1c ee bd 63 56 ea be 03 00 9c 3d
       -0.07763073 -0.11626502 -0.45769033 0.0761719
0003b0 4b 27 57 be 64 d4 21 bf 05 97 1f 3d cd 82 79 bf
       -0.21011083 -0.6321471 0.038962383 -0.9746521
0003c0 3c 3c 1e 3b 39 84 ae be b8 5f 97 be e9 a0 91 bb
       0.002414479 -0.34085253 -0.29565215 -0.004444231
0003d0 70 da 05 bf 87 32 af bf 5e 7c 23 bd 60 c7 a6 3d
       -0.52286434 -1.3687295 -0.039913528 0.081434965
0003e0 3a 5b 31 3e b1 8f 86 bc eb 43 a1 bd 21 ec 2e bf
       0.17319956 -0.01642594 -0.078742824 -0.68329054
0003f0 dc c3 3e bd e3 84 45 3d 03 f1 60 be 5f 34 dc 3d
       -0.046573505 0.048222434 -0.21966939 0.107521765

shared.3.bias f4 [128]
000000 20 46 6e 3e e6 25 9d 3d 4b dc 5a 3e c6 c1 c2 bb
       0.23268938 0.07673244 0.21373098 -0.0059435098
000010 7f 1f ee 3d c6 94 f9 bd 9c 8c f4 bc 81 1e 01 3e
       0.11627101 -0.121865794 -0.029852204 0.12609293
000020 ef 10 89 3d ec 66 19 3e 1c fe f6 3d d3 b9 4d 3d
       0.06692683 0.14980668 0.12060186 0.050226044
000030 cf b2 1f bc 84 d7 3a bd 5c 90 02 3e 5b 69 e1 bd
       -0.009747221 -0.045615688 0.12750381 -0.11006423
000040 87 c9 80 be 12 7d f7 3d f0 79 2f 3e cf 0b cc 3c
       -0.25153753 0.12084402 0.17136359 0.024907975
000050 52 2a 70 3e c7 39 e7 3c 44 33 a3 3e 06 cb 0e be
       0.23453644 0.028225793 0.3187505 -0.13944635
000060 1d d9 65 3d 33 27 40 bd 9a 8e 15 be 7a ad 78 3d
       0.05611526 -0.046912383 -0.1460518 0.060712315
000070 51 39 12 bd c6 34 c9 b9 5a df 0a be 8d b2 3e bd
       -0.035699192 -0.00038377027 -0.13561764 -0.046556998
000080 1a fa 13 be 54 13 0d bd 72 e2 43 3e 13 a8 a7 3d
       -0.14450875 -0.03444226 0.19129351 0.081863545
000090 45 b9 80 3e 62 5c 23 3e e1 0c 91 bd e6 aa 6c bd
       0.2514135 0.1595321 -0.070825346 -0.05778017
0000a0 2f 5d 29 bd 21 fa a1 3c ec ab 93 3d 8c 8e 57 3e
       -0.041348632 0.019772591 0.07210526 0.21050471
0000b0 bc 63 a3 3d b7 28 e2 3d 74 8f 78 3e de 64 9a 3b
       0.07978007 0.11042922 0.24273473 0.0047117313
0000c0 1b 49 4d be e2 3f 5e 3d fc cc ba bc 14 ba 8f 3d
       -0.20047419 0.054260142 -0.022802822 0.070179135
0000d0 fb bc 2f bd db d8 31 bd b3 4a 19 be 62 4f 60 3e
       -0.042904835 -0.0434197 -0.14969902 0.21905282
0000e0 e4 3d 70 3e b9 63 99 bc ab ad 22 3d 64 f2 a5 bd
       0.2346111 -0.01872431 0.039716404 -0.08102873
0000f0 e8 44 76 3e 17 a9 4b 3e e4 1f c1 3d 4e b7 83 3e
       0.24049723 0.19888721 0.09429911 0.25725788
000100 ca cb f0 bd 9e f9 2f 3e 2f f0 41 bb 5d 5b 3c 3e
       -0.1175762 0.17185065 -0.0029592623 0.18394227
000110 2d a1 c1 bc eb c3 5e bd 68 dc ba bd 44 7a d7 bd
       -0.023636425 -0.05438606 -0.091240704 -0.10521367
000120 92 00 6a bd f2 0c ba 3d 2d 2c 80 bc 4c bd 31 3e
       -0.05712945 0.090845 -0.015646065 0.17357367
000130 06 42 98 bd 6e 21 58 3e 24 a1 1e bd 01 01 de 3d
       -0.07434468 0.21106502 -0.038727894 0.10840035
000140 75 3e 00 3e ca 11 26 3e 64 44 41 3e 4c f2 96 bc
       0.12523825 0.16217723 0.18873745 -0.018426083
000150 1b fb 91 3d c9 93 5d 3e 3c 79 08 3d d3 42 2d bd
       0.07127973 0.21638407 0.033318743 -0.042300057
000160 81 86 5d 3e 7d 82 a6 3c e8 72 50 3e 0b ff 59 bd
       0.2163334 0.020325894 0.20356333 -0.053221744
000170 c9 b2 03 3e 24 bd 24 3d e1 fb ca bd f2 42 85 3d
       0.1286117 0.04021944 -0.09911323 0.065069094
000180 1c 16 03 3a d8 f3 ce bc ee 78 51 3d cf 3d e9 3c
       0.0005000548 -0.025262758 0.05114072 0.028471855
000190 94 38 8d bd f0 ae 82 bb 0b 2d 4a be b9 ba 06 3c
       -0.06895557 -0.0039881393 -0.19743745 0.008223229
0001a0 67 d1 00 bd 06 ca ba bd ae 08 a9 3c e4 a3 cc 3d
       -0.0314497 -0.09120564 0.020634022 0.09992197
0001b0 6e 52 56 3e 39 92 d4 3c 15 4f 6a bd dd e7 e3 3b
       0.20929882 0.02594863 -0.057204325 0.0069551305
0001c0 23 8d a1 3d 3d 74 87 bd e4 c9 2d bd 27 86 04 3c
       0.07888248 -0.066139676 -0.042428866 0.008088625
0001d0 9a 7e f1 bd c3 96 1e 3e ba 5d cf 3d 6b ba 9e bd
       -0.117917255 0.15487199 0.10125299 -0.077504
0001e0 67 07 5e 3d 29 0e 15 be 94 79 10 bc f4 28 d0 bc
       0.05420628 -0.14556183 -0.008818049 -0.025410153
0001f0 71 6f 0a 3d 5b 87 c1 bd 9d 9a 3c 3e b2 81 86 bd
       0.033797685 -0.09449645 0.18418355 -0.06567706

heads.0.weight f4 [2, 128]
000000 a3 63 01 bf 41 95 d5 3e 22 2b d7 bb 65 8b ad be
       -0.5054266 0.41715434 -0.006566421 -0.33895412
000010 7c 1a 7c be 2e 3f d2 3e b8 f7 00 bf 58 c9 07 3c
       -0.24619478 0.41063827 -0.5037799 0.00828775
000020 32 b5 da 3e ed 65 1a bd 55 56 49 be f4 70 be be
       0.42716366 -0.03769486 -0.1966184 -0.3719555
000030 86 02 cd be 07 e0 b6 3e eb 34 90 3d 2e 60 df 3e
       -0.40040988 0.35717794 0.07041343 0.43628067
000040 c7 fa c4 3e 9a 63 e7 bd 27 36 b7 be 9e 45 aa be
       0.38472578 -0.11298294 -0.35783502 -0.3325624
000050 31 85 5c be 3a b0 a9 be dc 6f 8b 3e 4f 3b b8 3e
       -0.21535183 -0.33142263 0.2723378 0.3598275
000060 ad 88 09 3e 84 c4 c2 bd ae be f3 3e f2 31 9d be
       0.13431044 -0.09510139 0.47606415 -0.30702168
000070 29 85 b1 be 1d 06 a3 3e 4f 3e 06 3f e1 a3 49 3e
       -0.34671906 0.31840602 0.52438825 0.19691421
000080 86 1b 52 3d 73 84 93 3e fc 79 03 bf b2 e9 d1 be
       0.05129578 0.28811988 -0.5135801 -0.40998608
000090 52 a1 db bd 33 29 a7 3e 92 b2 35 bd 7a a0 db bc
       -0.10724129 0.3264862 -0.04435975 -0.02680992
0000a0 a9 f4 6b 3e ff dc 93 be 09 28 b4 be ef a4 2d 3d
       0.23042549 -0.28879544 -0.35186794 0.04239362
0000b0 e6 f5 f6 be e0 6e 16 bf 06 6a 67 3d 13 43 b2 be
       -0.4823448 -0.5876293 0.056497596 -0.348168
0000c0 d0 9f cb 3e 06 ab 0b bc 7c eb c5 3e 0e d1 35 be
       0.39770365 -0.008524662 0.38656223 -0.1775553
0000d0 bb 50 ba 3e 8e 15 bc be aa 11 c3 bd cb 1a 1d be
       0.36389717 -0.36735195 -0.095248535 -0.15342252
0000e0 f6 36 79 3d 73 2d da be 45 eb 0e be 0d 48 77 3e
       0.06084343 -0.426128 -0.13956936 0.24148579
0000f0 73 70 19 bd 9b 3f 00 38 d2 57 b8 be 07 81 ac bc
       -0.037460756 3.0576815e-05 -0.36004502 -0.021057619
000100 b8 5c ed 3e 17 e6 0c be aa 3f d2 be 30 42 f8 bd
       0.463598 -0.13759647 -0.41064197 -0.12121999
000110 af 8a 12 3f f0 10 19 3f 59 fe 96 3e 18 ad 26 3f
       0.57242864 0.5979147 0.29490927 0.6510787
000120 13 c8 99 bd dd 3d 55 be bb 6c 06 3f 7f 1d a8 be
       -0.07508864 -0.2082438 0.5250966 -0.32835004
000130 20 6b 89 be b5 23 ca be 16 23 30 bd 94 15 cd 3b
       -0.26839542 -0.39480367 -0.04300221 0.006258676
000140 f2 f6 c1 be a9 64 f0 bc 40 63 38 bf c6 fa c7 be
       -0.37883717 -0.029344874 -0.72026443 -0.39058512
000150 54 1b 76 3d 22 4d c1 bd b6 ea 28 3f 52 cd b7 be
       0.060084656 -0.0943854 0.6598314 -0.35898834
000160 0b b6 60 be c4 d4 a5 be b3 c0 e3 bc ed 25 c6 be
       -0.21944444 -0.3238889 -0.027801847 -0.3870081
000170 07 34 92 bd 5a 6d c6 be 45 ee ed 3e d0 32 8f bd
       -0.0713883 -0.38755304 0.46470848 -0.069921136
000180 ba f5 70 bd 3f 2a 07 3f 93 a0 c9 be 6e b6 fd be
       -0.058828093 0.5279884 -0.3938032 -0.49553245
000190 ed 02 c4 be 2c 2f c1 3e 59 f1 5a 3e 60 98 1f bd
       -0.38283482 0.37731302 0.2138113 -0.038963675
0001a0 b9 e1 01 be 2e aa 80 3d 73 f7 2a bf d9 9c 93 3e
       -0.12683763 0.06282459 -0.6678383 0.28830603
0001b0 35 b8 64 bd 0a 46 b1 be 7e db 9c be 70 98 0e bf
       -0.055839736 -0.34623748 -0.3063621 -0.5570135
0001c0 5d 6c c9 be 8b c4 00 bf 20 5f a6 3e 5c fc 8b 3d
       -0.39340487 -0.502999 0.3249445 0.06835243
0001d0 42 a2 a6 3e a7 e4 83 be 24 34 31 be 55 1f 81 be
       0.32545668 -0.25760385 -0.17305046 -0.25219217
0001e0 4a fc a2 be 1c e9 bd 3e 9b b3 bd 3e 17 51 ad be
       -0.31833106 0.3709191 0.3705109 -0.3385093
0001f0 9b 52 f4 3c 1f c9 34 bc 87 31 93 3d cc 94 f5 3e
       0.029824546 -0.011034279 0.07187181 0.47965086
000200 a5 7a 15 3f 4c 12 d2 be bb 67 be 3d cb 98 99 3e
       0.58390266 -0.41029584 0.09297129 0.29999384
000210 3d 51 bb 3e 8b 7f e1 be 42 83 f5 3e 0d a4 23 bc
       0.36585417 -0.4404262 0.47951704 -0.009987843
000220 12 bc dc be 7e 5a 2e bd 7f fa 8a 3e 7f 9c ea 3e
       -0.43112236 -0.04256677 0.27144238 0.45822522
000230 a1 bd cc 3e ba 97 cd be 94 4b d3 bd 4a e0 d6 be
       0.39988425 -0.4015482 -0.1031715 -0.41967994
000240 75 20 c5 be c8 18 50 3c 0f 3b ab 3e 6b bd ab 3e
       -0.38501325 0.012701221 0.33443496 0.33542952
000250 9c a7 41 3e 3b 98 67 3e 57 07 61 be 84 11 e2 be
       0.18911594 0.22616665 -0.21975456 -0.44153988
000260 96 01 11 3d 0b 02 84 3c 20 db c8 be bc 4b ce 3e
       0.035401903 0.016114255 -0.3922968 0.40292156
000270 6d 3f 9a 3e a5 16 89 be 9a f7 eb be 40 41 9c be
       0.30126515 -0.2677509 -0.46087343 -0.30518532
000280 63 ff 73 3d a8 b1 55 be dd c9 06 3f 42 0d 94 3e
       0.059569728 -0.20868552 0.5265177 0.28916365
000290 3f 3f d6 3d 4a 9e 99 be 2e e9 8e bd 94 8d 1e 3e
       0.10461282 -0.30003577 -0.06978069 0.15483695
0002a0 7c 3f a0 be 7a b8 9a 3e 14 3b 87 3e d3 95 dc 3d
       -0.31298435 0.3021887 0.2641226 0.10770764
0002b0 01 04 ba 3e 66 40 e8 3e 76 54 7b bd a7 4e c4 3e
       0.3633118 0.45361632 -0.061359845 0.38341257
0002c0 1d 22 e1 be 6f 3d 2b bd 00 4a ad be a3 9f 0b 3e
       -0.4397134 -0.041806635 -0.3384552 0.13635115
0002d0 f2 6d b4 be d1 37 b6 3e 4a f4 d9 3b 2a c4 19 3e
       -0.35240132 0.3558946 0.006651436 0.15016237
0002e0 87 d8 76 3d ff 68 c8 3e ff d9 f9 3d ed 8e 78 be
       0.06026509 0.39142606 0.121997826 -0.24273272
0002f0 06 41 c5 3d 2e a3 89 3d 3e 3c c9 3e 16 23 25 3c
       0.09631543 0.06720577 0.39303774 0.010079166
000300 79 77 ff be 1a 75 07 3e 93 82 d1 3e 21 35 ee bb
       -0.49895838 0.13228264 0.40919933 -0.007269517
000310 a4 36 15 bf b8 76 16 bf 37 c8 ad be b7 b5 07 bf
       -0.582865 -0.587749 -0.33941814 -0.5301165
000320 b7 78 83 bd 22 62 12 3e f5 93 02 bf da cd c3 3e
       -0.06419509 0.14295247 -0.51007015 0.3824299
000330 4e 75 95 3e fe ff aa 3e c1 8d da 3d f6 2e af bc
       0.2919106 0.33398432 0.10671569 -0.021384697
000340 ce cd ae 3e 02 15 14 3e ec cb 42 3f b2 69 c5 3e
       0.34141392 0.14461139 0.7609241 0.38557202
000350 ef 8e 98 bd b3 13 cd 3d 20 5f 0d bf ab 46 a2 3e
       -0.074491374 0.10013523 -0.55223274 0.3169454
000360 a3 f3 8b 3e 28 c2 c2 3e fc 3e 1a 3e 28 52 db 3e
       0.27334318 0.38038754 0.15063089 0.42836118
000370 73 4f d1 bb 69 5b 8e 3e 5d b1 07 bf 8b 16 ff 3b
       -0.006387645 0.27804115 -0.5300501 0.0077846698
000380 e1 05 05 bd bb d9 01 bf 07 21 a2 3e 55 37 06 3f
       -0.03247631 -0.50722855 0.31665823 0.5242818
000390 c4 d3 a7 3e e8 f8 b7 be 70 ce c5 bd 85 2a 04 3e
       0.32778752 -0.35932088 -0.096585155 0.12906845
0003a0 34 0a fb 3d 73 5f 72 bd ea bb 26 3f df 09 34 be
       0.122578055 -0.05917306 0.65130484 -0.1758189
0003b0 70 56 0a 3d ac c6 c5 3e 5c 57 d7 3e e7 b7 14 3f
       0.03377384 0.38628137 0.42058837 0.5809311
0003c0 2b 71 05 3f ca 30 0e 3f cb 21 ae be 02 d4 b9 bd
       0.52125806 0.55543196 -0.34010157 -0.090736404
0003d0 c0 5c bb be 37 7d 89 3e fb f0 55 3e bc dd 25 3e
       -0.365942 0.26853344 0.20892708 0.16197866
0003e0 01 01 c9 3e e4 73 ad be 27 46 d6 be 79 52 f1 3e
       0.39258578 -0.3387748 -0.41850397 0.47133234
0003f0 43 7d a9 bc 44 22 29 bd e2 0c 7a 3d 81 5e ec be
       -0.020689612 -0.041292444 0.061047442 -0.4616585

heads.0.bias f4 [2]
000000 e1 9c 49 be 91 1e 05 3e
       -0.19688751 0.12999941

heads.1.weight f4 [2, 128]
000000 12 93 31 be e6 62 fa be b4 e4 12 bf e4 6d 66 3e
       -0.17341259 -0.4890358 -0.57380223 0.22502857
000010 ca 07 f9 3e 14 93 e1 be a3 08 ef 3e c2 07 2a bf
       0.48638755 -0.44057524 0.46686277 -0.6641809
000020 65 1f e8 be 86 77 21 bf f3 a8 6f be ba c4 56 3d
       -0.45336452 -0.63073003 -0.23404293 0.052433707
000030 a9 66 df 3e 44 43 b6 be 2f 58 48 bf 8f 7e a4 be
       0.4363301 -0.35598195 -0.7825956 -0.32127807
000040 ce 43 86 be 45 02 a9 be 1f 4e e5 bc 63 00 fe 3e
       -0.26223606 -0.33009544 -0.027991353 0.4960967
000050 f6 6c ba be ff 66 55 3e 00 b8 9d 3e a0 99 ce be
       -0.36411256 0.20840071 0.30804443 -0.40351582
000060 ba 16 22 bf 15 68 8d 3f 1b bb c9 be c2 ef d1 3e
       -0.6331593 1.1047388 -0.39400563 0.41003233
000070 c8 a2 ed 3e 19 bf 7d be cb 29 dc be e6 4c 25 be
       0.46413255 -0.24779929 -0.43000636 -0.16142616
000080 af 72 ae 3d 37 d0 79 be 37 68 44 bc bf 22 f9 3e
       0.08517968 -0.24395834 -0.011987737 0.48659322
000090 6a 8a 5a bf 1b e4 d0 bd db 18 3a bc 62 1e 58 3f
       -0.85367453 -0.10199758 -0.011358465 0.8442136
0000a0 e3 e1 4c be e8 e2 cf 3e a8 cb 84 be 81 d9 55 bf
       -0.20008044 0.40602803 -0.25936627 -0.8353501
0000b0 fc 68 10 3f 7a d5 5f bd 9c 84 3a bf 5d 2b 19 3f
       0.56410193 -0.054646946 -0.72858596 0.5983179
0000c0 6c 4b c4 be 50 24 87 bf 4b 4e c2 be b4 05 9d be
       -0.38338792 -1.0557957 -0.37950358 -0.30668414
0000d0 c1 5b 87 be a3 73 87 3e fe d0 7b bc dc 78 05 bf
       -0.2643719 0.2645541 -0.015369652 -0.5213754
0000e0 a7 b0 92 bf f3 df 9f 3e 24 12 c1 be 6e 9d a5 be
       -1.146016 0.31225547 -0.37709153 -0.32346672
0000f0 69 a4 30 bf 59 5c 3d bf ab bf fb 3e 73 7e f9 be
       -0.6900087 -0.73969036 0.4916967 -0.48729286
000100 76 55 90 be bc a3 33 bf 3f f0 64 3d 95 ca 37 bf
       -0.28190202 -0.70171714 0.05589318 -0.7179349
000110 2b 60 07 bf a7 09 fa be 28 43 62 be f1 c0 b7 be
       -0.52881116 -0.4883549 -0.2209593 -0.3588939
000120 50 5e 03 3e 8c 00 ab be 28 6f d6 be 2f 4d ad bc
       0.12828946 -0.33398855 -0.4188168 -0.021154968
000130 a3 fc e9 3e c5 c2 8f be f0 bb 10 3f fb 8f 2e bf
       0.4570056 -0.28078285 0.5653677 -0.68188447
000140 39 ea f0 bd 39 5d c4 be 21 b9 0e 3d c6 bf 09 3e
       -0.117634244 -0.38352373 0.03484452 0.13452062
000150 a8 c1 6c 3f 8c 61 2f be 1f 94 0d bf f3 45 15 3f
       0.92482996 -0.17127055 -0.5530414 0.5830986
000160 33 39 9c be aa 70 ad 3d dc b0 ba be 8d 90 a2 3e
       -0.3051239 0.084687546 -0.36463058 0.31750908
000170 49 2c 05 bf 3a d4 9a 3e 41 8e fe be d0 58 5a 3f
       -0.520207 0.3024004 -0.49717906 0.8529177
000180 00 3a 2d bf 0d 29 dd be 0e 76 02 3d c1 63 b8 bc
       -0.67666626 -0.43195382 0.031850867 -0.022508504
000190 d2 96 f0 3e 4e 91 f7 be 43 c3 91 be 36 c2 4d 3e
       0.46990067 -0.48353046 -0.28469285 0.20093617
0001a0 5f 35 74 bb 19 81 c0 be 84 a2 e2 3c 0e 47 9f be
       -0.0037263257 -0.37598494 0.027665384 -0.31108898
0001b0 74 7f 36 bf d3 e3 0c 3d 74 65 8c 3e 91 f0 0b 3d
       -0.7128823 0.034396958 0.27421153 0.03416497
0001c0 ce 05 a7 3d 41 db df 3e bf b3 f2 be f2 ac 0f bf
       0.08155404 0.43721965 -0.4740276 -0.5612327
0001d0 85 55 95 be 6e 08 4b 3d ad c4 92 be 1b be b0 3e
       -0.2916681 0.049568586 -0.28665677 0.3452004
0001e0 40 1c 3b bd bd e4 e8 be 90 6f d1 be 94 18 dc 3e
       -0.04568124 -0.45487013 -0.40905428 0.42987502
0001f0 04 e2 3d bf 0f 97 3b 3f 97 25 6e bf 1a d0 c6 be
       -0.74173 0.7327737 -0.9302611 -0.38830644
000200 45 1d 8d 3e e4 38 0a 3f b8 40 1c 3f 93 5c 69 be
       0.27561393 0.5399306 0.6103625 -0.2278922
000210 6e 45 ea be dc ac 8e 3e 39 9b 96 be 2b 18 05 3f
       -0.45756096 0.27866256 -0.294153 0.5199
000220 ed f3 e3 3e 5d 66 29 3f e1 9e b9 3e 2d ad b5 3c
       0.44522038 0.6617182 0.36254027 0.022177303
000230 30 b0 aa be 21 29 98 3e ef 59 2b 3f 0f 4c b9 3e
       -0.33337545 0.2971888 0.669341 0.3619084
000240 6b 6e a9 3e de 74 b4 3e 8c 7b 17 3e df 24 ed be
       0.33092055 0.35245413 0.14793223 -0.46317193
000250 17 14 80 3e b2 ac 33 be 5f f9 d3 be f8 c5 00 3f
       0.25015327 -0.17546347 -0.41401193 0.50302076
000260 6d 16 27 3f 17 d0 84 bf 98 70 b5 3e 65 64 d1 be
       0.65268594 -1.0376004 0.35437465 -0.40896907
000270 d9 52 0d bf 0f 59 0e 3e a2 9e e3 3e d4 7a 36 3e
       -0.5520454 0.1390116 0.44456965 0.17820293
000280 a7 46 12 3d 79 87 b1 3e be c5 9f bb 63 d0 10 bf
       0.03571191 0.3467367 -0.0048758676 -0.5656797
000290 fa 8e 4c 3f 63 c3 b2 3d 86 f3 01 ba 2f 42 3f bf
       0.79905665 0.08728673 -0.00049572473 -0.74710363
0002a0 78 22 a7 3e 69 b0 a5 be d3 bb 0f 3e 15 a1 43 3f
       0.32643485 -0.32361153 0.14036493 0.76417667
0002b0 09 f4 0c bf 60 b4 4c 3e 77 98 36 3f 30 50 29 bf
       -0.5505987 0.19990683 0.7132639 -0.6613798
0002c0 5e cd d4 3e 50 f6 8e 3f 3e 90 a4 3e 29 0c 9e 3e
       0.41562933 1.1168919 0.32141298 0.30868652
0002d0 ea 7f 8f 3e 53 3e 9c be 28 2c 1d bd a9 92 1b 3f
       0.28027278 -0.305163 -0.03837219 0.6077066
0002e0 e1 dc 87 3f b1 f9 94 be fc 11 dc 3e 6e 02 a8 3e
       1.0614282 -0.2909675 0.4298247 0.32814354
0002f0 e1 cc 2a 3f 1b 4a 45 3f c2 ff d9 be 5d 1d cf 3e
       0.6671887 0.770662 -0.4257794 0.4045209
000300 7c 99 d3 3e 84 10 13 3f c0 26 e1 3c 0b 18 2f 3f
       0.41328037 0.57447076 0.027484298 0.6839606
000310 4e db 00 3f 61 39 f8 3e 47 c3 bd 3e 10 db f2 3e
       0.5033463 0.48481277 0.37063047 0.47432756
000320 a8 7c e6 bd af c7 75 3e e5 d8 e7 3e d9 55 94 3d
       -0.11254245 0.24001954 0.45282665 0.07242937
000330 f7 1e c7 be 51 9a 62 3e fb 81 2c bf 2a 1c 23 3f
       -0.38890812 0.2212918 -0.67385834 0.6371485
000340 20 a6 74 3e 6e 59 c4 3e fc 47 90 bc 93 ef 6a 3c
       0.23891497 0.3834948 -0.01761245 0.0143393455
000350 31 46 7e bf 80 72 83 3e 1e f7 0e 3f 70 f2 15 bf
       -0.99325854 0.25673294 0.5584582 -0.58573055
000360 11 0c a9 3e bb 63 7a 3d 70 f5 bf 3e 99 f3 af be
       0.33017018 0.061130267 0.3749194 -0.34365538
000370 e7 f5 06 3f 4a 3f a4 be 4b 43 bf 3e 81 43 51 bf
       0.5271897 -0.32079536 0.37356028 -0.8174363
000380 21 d3 0d 3f e4 78 9f 3e 2d 33 60 bd 28 ed c5 bb
       0.5540028 0.3114692 -0.054736305 -0.006040234
000390 64 1e d3 be b6 7f de 3e 69 68 9b 3e e1 1b 95 be
       -0.41234124 0.4345681 0.30353096 -0.29122832
0003a0 b2 a1 47 3c b9 8e c9 3e 4a 40 16 3d 24 c4 84 3e
       0.012184547 0.393667 0.036682405 0.25930893
0003b0 99 c3 31 3f 45 ae 9c 3d 70 6d d4 be 29 e6 71 3d
       0.69439083 0.07650427 -0.41489744 0.05905739
0003c0 07 3b dc bc 5b 26 0c bf e7 db b2 3e 2f 98 0a 3f
       -0.026883615 -0.54746026 0.34933397 0.54138464
0003d0 d8 e9 c9 3e 50 12 8d 3d 64 33 25 3e 88 f5 8c be
       0.3943622 0.068882585 0.16132885 -0.27531075
0003e0 8a 14 06 3e 3e 98 b4 3e 97 6c ca 3e 64 8c c4 be
       0.13093773 0.35272402 0.39535972 -0.3838836
0003f0 f1 9b 4b 3f 50 e5 4a bf 23 52 52 3f 40 36 a9 3e
       0.7953482 -0.79256153 0.8215658 0.33049202

heads.1.bias f4 [2]
000000 f9 ad 33 3d cb fc b4 3d
       0.043867085 0.08837279
