models/model_poisson_nn.pt (torch, 41099 bytes, 8 tensors)

shared.0.weight f4 [64, 2]
000000 88 53 98 3e 73 78 f3 3e 3b b1 12 3d 05 f0 3e bf
       0.2975123 0.47552833 0.03581355 -0.7458499
000010 93 6b be be 4c 3c f1 be bc 9f 15 3f d3 be 7c be
       -0.37191448 -0.47116315 0.5844686 -0.24682169
000020 19 e9 14 bf 86 05 b1 3c ba 50 7c 3e 38 6c 28 3f
       -0.5816818 0.02160908 0.2464017 0.6579013
000030 94 1c 07 bf 79 4b 64 3e 3b 23 ee be 89 f8 6a 3c
       -0.5277798 0.22294416 -0.46511254 0.014341482
000040 af ff 84 be 87 9b a0 be 72 39 ee 3c c1 59 65 bf
       -0.2597632 -0.31368658 0.029080126 -0.8959008
000050 c5 de 00 bf cc 55 b5 3c 45 1b 42 bb e1 c1 4f 3f
       -0.5033992 0.022135638 -0.0029618305 0.8115521
000060 7f c4 1d 3f 49 ca c2 3c b1 09 96 3a 9d d3 33 bf
       0.61627954 0.023778098 0.001144698 -0.7024477
000070 b8 bc 76 3e 95 47 1c bf 77 32 f6 bd 24 f9 f3 bd
       0.24095428 -0.61046726 -0.12021344 -0.11912754
000080 44 2d c3 3e 8a 62 58 bf cb 22 0c bf 98 80 58 3e
       0.38120472 -0.8452536 -0.5474059 0.21142805
000090 0a 77 9a 3e 45 9f e5 be d1 3f d8 3e 08 d0 3b be
       0.30168945 -0.44848076 0.42236188 -0.18341076
0000a0 13 72 1c 3f 58 6c 8c 3c 6e 38 13 3f a3 1c ae 3c
       0.61111563 0.017141506 0.5750798 0.02125389
0000b0 97 fc a1 3c 1f 34 f1 3e cf 04 c6 3e 3d 40 de 3e
       0.019773765 0.47110078 0.38675544 0.43408385
0000c0 17 8a 1a 3f 78 02 29 3f 69 12 00 3d 82 94 31 bf
       0.6036696 0.6601939 0.031267557 -0.6936723
0000d0 b6 de d3 3e 39 43 05 bf f4 6e 76 3e db e3 57 3e
       0.41380852 -0.520557 0.24065763 0.21083014
0000e0 58 fe 39 3f b2 76 fa 3c ea 71 b8 3d 27 26 12 bf
       0.7265372 0.030574176 0.090061024 -0.57089466
0000f0 74 99 01 3e dc 27 13 bf 55 88 27 bf 73 b1 c6 3c
       0.12656194 -0.57482696 -0.654424 0.024254536
000100 6f 1e f0 be 38 a3 1c bf bc 64 0e 3f bf 18 90 3c
       -0.4689822 -0.6118655 0.5562246 0.017589925
000110 34 63 d3 3e 71 6b e8 be a6 ed 44 3d 49 a5 3d 3f
       0.41286623 -0.4539447 0.0480782 0.7408033
000120 52 ab 58 be 10 26 0b 3f 6e 8a 0c bc cc a6 56 bf
       -0.21159104 0.54354954 -0.008577926 -0.8384826
000130 cb 8e 8d be 3a 72 ae be 2a 5d b4 3e 5e 6e 98 3e
       -0.27648005 -0.34071523 0.3522733 0.29771703
000140 00 1a 26 3f 5a e3 0e 3e 22 b7 36 3f 7e 3f 18 3d
       0.6488342 0.13953915 0.7137319 0.037169926
000150 00 a4 23 3f 3a 74 f5 3e eb 1a 8f be fd 4f 89 be
       0.6392212 0.47940236 -0.27950224 -0.2681884
000160 9b bc 27 3f ca 5d d7 3d 58 9c 66 3c 50 fd 7e 3e
       0.65522164 0.10515936 0.014075361 0.24901319
000170 22 2b b5 3d f7 66 15 3d 6f 55 a2 3e 78 bb 9c be
       0.088461176 0.036475148 0.31705806 -0.30611777
000180 54 24 bd 3c 33 4f 5a bf 19 74 50 3e 53 25 08 bf
       0.023088612 -0.852771 0.20356788 -0.5318195
000190 61 81 cd 3c 0b 59 27 bf 13 06 8c 3e 9a 5c 94 be
       0.025086107 -0.65370244 0.27348384 -0.289769
0001a0 be 6c 32 bf 2c 44 8a 3e b8 ad d7 be 8b a8 0e bf
       -0.6969718 0.27005136 -0.42124724 -0.55725926
0001b0 f5 9a 1a 3f 28 1c b4 3c 86 f2 0d bf c6 75 6c bc
       0.60392696 0.021986082 -0.55448186 -0.014432376
0001c0 d9 5d 56 be a8 c3 0c 3f 6b 2c 80 3d 7b bd 02 bf
       -0.20934238 0.5498605 0.06258472 -0.51070374
0001d0 d7 6c 88 3e d4 48 02 bf 18 7b 10 3f 4d 6f c9 3e
       0.26645538 -0.50892377 0.56437826 0.39342728
0001e0 2a 9c 23 3f b9 25 a3 3e f7 57 cc 3e 80 28 e7 3e
       0.6391016 0.31864718 0.39910862 0.45148087
0001f0 46 cb 82 3d 9c 3b 47 bc c8 9b 1c 3f c4 3a 75 3c
       0.063864276 -0.012160208 0.61175203 0.014967624

shared.0.bias f4 [64]
000000 65 6f e3 3e 3a b6 08 bf e3 7b dd bc 58 5d 0f 3f
       0.44420925 -0.53403056 -0.027036613 0.56001806
000010 fd b5 f9 be 7a 8a c2 3d 69 51 40 be a3 e0 d1 be
       -0.4877166 0.094990686 -0.18781056 -0.40991697
000020 5c 4f aa bc 73 f2 23 bf bb 99 e1 be c7 d8 25 3f
       -0.020789795 -0.64041823 -0.440626 0.647839
000030 29 d3 10 3f 66 10 07 bf e8 3a 6e be 98 1a 91 3c
       0.56572205 -0.527594 -0.23264658 0.017712876
000040 88 50 8a be 91 a0 71 be 30 29 5c bd 09 77 29 bf
       -0.27014565 -0.23596407 -0.053750217 -0.6619726
000050 82 8a 0e 3f 09 14 06 3f af 3a c6 3e 5c 56 a1 be
       0.55680096 0.5237432 0.38716647 -0.315112
000060 2d ec eb be 6c 87 05 bf 06 27 5d 3d 56 0b 48 3e
       -0.46078625 -0.5215976 0.053992294 0.19535574
000070 0d 6a 28 3f 98 6d 85 be 6f 02 c5 be d3 33 0f bf
       0.6578682 -0.26060176 -0.3847842 -0.5593845
000080 42 d5 50 bd 21 a7 01 3f 85 a9 4b bf 25 03 0a bf
       -0.05098463 0.50645643 -0.7955554 -0.5391105
000090 c5 ab 3b bf 0f d7 1b bf c5 51 da bc 1b 0d 91 3e
       -0.73308975 -0.6087503 -0.026650319 0.2833031
0000a0 e0 ed 2e bf 05 63 25 3f 03 00 6e bc ef 11 e7 3c
       -0.6833172 0.64604217 -0.01452637 0.028206794
0000b0 61 1b 24 bf ca 65 f2 be c2 45 d3 be d6 4f 15 bf
       -0.64104277 -0.47343284 -0.41264158 -0.58324945
0000c0 8d ae 1c bf 7c 38 8a be 7c 18 f0 be 8b 62 fd be
       -0.61203843 -0.2699622 -0.4689368 -0.49489245
0000d0 77 1d 89 be 86 9a 76 3a 3a 16 0e 3f 70 a1 f5 be
       -0.26780292 0.0009407181 0.55502665 -0.4797473
0000e0 b1 5b 12 bf bc a3 cc be 44 9a 03 be 3f 5c c8 bc
       -0.5717116 -0.3996867 -0.12851816 -0.024458049
0000f0 04 ac fd be 4b 3d bf be 6b d4 1e bf 00 c1 11 3f
       -0.495453 -0.3735145 -0.62042874 0.5693512

shared.3.weight f4 [128, 64]
000000 89 43 88 bc d3 0e 86 be a9 99 47 3e 04 d9 0b bd
       -0.016633766 -0.26183185 0.1949221 -0.03414251
000010 f0 fb 83 3e 3c 8e f2 ba 12 da 2b 3e 12 44 e3 3e
       0.2577815 -0.0018505524 0.16782406 0.4438787
000020 e1 32 0d 3e 54 ae a9 bd 3f 4e d2 3e f6 1c 27 3d
       0.1378894 -0.082852036 0.41075322 0.040799104
000030 32 cf c2 be 5f 5a 87 bd d8 cb 35 bf 7c a4 0d 3e
       -0.38048702 -0.06609034 -0.71014166 0.13832277
000040 17 a1 2b bf 1e 71 75 bd 82 39 0d bf d7 cb 9e 3d
       -0.6704268 -0.05992233 -0.55165875 0.07753723
000050 47 6a 95 bf 3c d1 91 bf f1 9a bf bd 3c a0 62 3d
       -1.1673058 -1.1391978 -0.093557246 0.055328593
000060 8c 14 bd be 54 96 a3 bd 31 d9 a8 be 7b 81 c7 bd
       -0.3692974 -0.07987657 -0.32978204 -0.09741493
000070 7e 1a 8f bf c3 37 d4 be 12 6f c3 be fb 88 cb 3e
       -1.117996 -0.41448793 -0.38170677 0.39752945
000080 50 f8 80 3e 57 a9 95 be 40 cc b6 bc 08 b1 ac 3e
       0.25189447 -0.2923076 -0.02231419 0.33728814
000090 2f 50 2e 3f 6a 6f 34 3e 50 28 6f 3e bf 5f 05 be
       0.680911 0.17620626 0.23355222 -0.13024805
0000a0 99 dd 0b bd 70 c2 2a bf 32 cc d0 bd 37 43 dd 3d
       -0.03414688 -0.6670294 -0.10195197 0.10803836
0000b0 79 40 af 3d 40 78 f5 3b 20 0c 34 3c 7d 5d 81 bd
       0.08557219 0.0074911416 0.010989219 -0.063166596
0000c0 01 b2 86 3c bd b1 1f bf 71 9f 5d be 81 60 c7 3d
       0.0164423 -0.6238058 -0.21642853 0.097352035
0000d0 df 6a 43 bd 26 8c 8f 3d 3f db 1c bf df 3f ba 3e
       -0.047709342 0.07009153 -0.61272043 0.36376855
0000e0 af 67 15 3f 31 ee ac be 7f f6 88 be 73 2a ab be
       0.58361334 -0.33775476 -0.26750562 -0.33430824
0000f0 54 d3 88 bd 58 77 9a bc 9a 8b f2 bd 41 db 08 bf
       -0.06680933 -0.018855736 -0.11843033 -0.53459555
000100 6d 34 29 3e bb ed 0a bf 17 fd b4 3b aa a3 b4 bd
       0.16523905 -0.54269 0.0055233347 -0.08820279
000110 0d 7f e8 3d 38 14 03 3e 1b 47 f4 3d 1d fa 84 3c
       0.11352358 0.12800682 0.11927625 0.016232545
000120 9b 22 ec ba 82 16 30 bf b2 0a 06 3d 14 04 ec 3e
       -0.0018015684 -0.68784344 0.032725044 0.4609686
000130 8e 06 8e 3c 57 00 c7 be 0d 3b 7e bd f6 1b e2 3c
       0.01733711 -0.38867447 -0.062068034 0.027601223
000140 e8 ac 84 bb 52 c0 07 3e 23 cd ca bd 75 a6 ff be
       -0.0040489323 0.13256958 -0.09902408 -0.49931684
000150 65 3d cf 3d d1 ba d8 bd 4a e0 b0 3e c9 5b a6 3e
       0.10119132 -0.105825074 0.3454612 0.32491902
000160 0c cd 7f 3e df a3 83 be 67 82 99 3d bd 57 31 bd
       0.24980563 -0.2571096 0.074955754 -0.043296564
000170 b0 58 35 3e d1 43 27 bd 7f 07 29 be 8b 13 54 3e
       0.17709613 -0.04083616 -0.16506766 0.2071058
000180 a6 a3 0f 3b 99 b1 ca bd 9f 87 08 bf 6e 49 41 3e
       0.002191761 -0.09897155 -0.5333194 0.18875667
000190 3c 3e 44 3e f2 3e ef be c9 84 35 bc 2b f2 81 3c
       0.19164366 -0.4672771 -0.011079022 0.015862545
0001a0 4a 70 46 be d9 c5 56 3e 17 cc 01 be 4d a3 92 3b
       -0.19378772 0.2097391 -0.1267551 0.0044750334
0001b0 da ec 8f be a0 34 ba bc b8 86 f5 bc 28 eb 05 bf
       -0.2811039 -0.022730172 -0.029971465 -0.52311945
0001c0 ae 6b 66 bf 9f 04 1c 3d 32 a8 17 bf 05 c8 c0 bd
       -0.90008056 0.038090345 -0.5924102 -0.09413151
0001d0 99 89 a1 3e bb ff 98 3c a1 77 c8 bc 38 04 ec bd
       0.3155029 0.01867663 -0.024471106 -0.11524242
0001e0 b5 8e 0a 3d db a8 c1 bd a6 d6 39 ba ba dc e3 3d
       0.033827502 -0.09456035 -0.0007089175 0.111260846
0001f0 58 14 45 bd 4b c7 61 3e 68 6e 2e 3d a7 47 9c 3d
       -0.048115104 0.2204868 0.04258576 0.07630854
000200 14 50 41 3d fa 63 0a bf e7 d6 ce bc c9 41 67 3c
       0.04719551 -0.540588 -0.025248958 0.0141148055
000210 98 e4 31 3b ba ce 98 3e 53 b0 c0 3e bc f5 71 bd
       0.002714431 0.2984522 0.37634525 -0.05907224
000220 18 6f 97 bd 08 d8 56 bf 8e 1b 83 3d 15 72 30 3f
       -0.07394236 -0.8392339 0.0640174 0.68924075
000230 80 ce bf 38 b5 be 42 bf b0 90 8c 3d a0 d1 4f 3d
       9.146053e-05 -0.76072246 0.068635345 0.050737023
000240 77 a5 03 3e cc 96 b1 3e c2 44 e9 3c 37 2c 08 bf
       0.12856089 0.3468536 0.02847517 -0.53192466
000250 e3 dd a1 bd 28 8a 90 3d 45 4b 0b 3f fd 55 b8 3e
       -0.0790365 0.07057601 0.5441173 0.36003104
000260 42 fe 18 3e 05 ee 9b be 57 86 ee bc 75 ed e0 3d
       0.14940742 -0.30455032 -0.029116793 0.10982791
000270 09 0d f3 bc ed e5 43 bd d4 80 2b be 84 fc 05 3d
       -0.029669302 -0.047826696 -0.16748363 0.03271152
000280 ef b9 f3 bb 2c 9b 18 3d a7 0e 48 bf 68 c5 87 3d
       -0.0074379365 0.03725736 -0.7814736 0.06629449
000290 9c 50 58 3e 67 32 2d bf 2a 5b ce bd 89 7f f8 bc
       0.211245 -0.6765503 -0.10075982 -0.030334251
0002a0 56 28 d0 be 89 06 b2 bc a4 af 60 3d d1 01 ea bd
       -0.40655774 -0.021731632 0.054855004 -0.11426128
0002b0 58 5a 6e be 20 8c 6f 3c 14 76 27 bd cc 2c 14 bf
       -0.23276651 0.014620811 -0.040884092 -0.57880855
0002c0 fc 52 64 bf d4 ac 93 3d 63 b9 45 bf d9 0a 9e bd
       -0.89189124 0.07210699 -0.77236 -0.07716913
0002d0 bf f4 be 3e 8e 22 f5 bc d0 d5 ae 3d 4d 4c e8 bd
       0.372961 -0.029923704 0.08536875 -0.11342678
0002e0 97 38 f3 bd fa d5 6e bc 65 29 01 3e 74 cf b3 bc
       -0.11876028 -0.014577383 0.12613447 -0.021949507
0002f0 5f 46 99 be 3f 2a d1 3e 14 d0 34 3d f3 70 a6 ba
       -0.299365 0.40852544 0.04414375 -0.0012698456
000300 ed ac be bd 07 f2 f5 3e e1 83 80 3d 33 62 30 3d
       -0.09310327 0.48036215 0.06275154 0.0430624
000310 58 71 8b bd e6 2c 74 be a0 b0 15 bf 46 23 a5 bc
       -0.06808728 -0.23845252 -0.58472633 -0.020158421
000320 5d bd 0c bb a1 d8 37 3f 0a da 7b be 9f 5e 75 bf
       -0.0021475174 0.71814924 -0.24594894 -0.95847505
000330 fb 02 0f 3e 1a fe 22 3f 65 86 b2 3d ae 9f 30 3e
       0.1396598 0.6366898 0.0871704 0.17248413
000340 cf f9 07 3e 79 24 1c bf 26 8b 8e 3d 24 27 16 3f
       0.13278888 -0.6099315 0.06960134 0.58653474
000350 ac c1 30 bb c7 41 4c bd ea c5 95 bf 28 86 b2 bd
       -0.0026970906 -0.049867418 -1.1701024 -0.087169945
000360 c5 a7 ae bd 1d 98 8c 3e c2 05 92 3d 69 82 54 3d
       -0.08528093 0.27459803 0.071300045 0.05188218
000370 ed e1 36 bd 6e 4b 42 bb 1e 0a f8 3d 59 f6 f9 3c
       -0.044649053 -0.002964701 0.12111305 0.030512976
000380 f2 71 db bc 4c 89 66 3c a6 23 02 3f 9f 8a 86 3c
       -0.026787732 0.01407082 0.50835645 0.016423522
000390 c1 62 77 3d c2 23 ef 3e 57 52 fa 3d f0 66 53 bd
       0.060396913 0.4670697 0.12222736 -0.05161184
0003a0 35 ce bc 3e 62 80 19 bd 66 17 47 3c e3 fc 26 3e
       0.36876073 -0.03747595 0.012151575 0.16307406
0003b0 0a 43 af 3e b8 2b 80 3d c0 9c b8 3d 2e b9 23 3f
       0.34230834 0.06258339 0.09014273 0.63954437
0003c0 7e 19 39 3f ea 88 44 3e a1 ec 38 3f 4b 93 c0 bd
       0.72304523 0.19192854 0.7223607 -0.09403094
0003d0 8a 61 23 bf c2 09 22 3d 0d 7e 81 3d aa 8f 94 bd
       -0.6382071 0.039560087 0.063228704 -0.07253964
0003e0 4f 83 a3 3d a5 62 51 3e d3 d5 07 3d fc 57 51 be
       0.079840295 0.20447786 0.033162903 -0.2044372
0003f0 06 e3 b8 3e f6 63 8d bd 76 0b 9c 3d 5e 79 9b 3d
       0.36110705 -0.06903832 0.076193735 0.07591508

shared.3.bias f4 [128]
000000 35 d5 79 3e c6 f3 e4 3d 41 22 68 3e 84 18 c4 bd
       0.24397738 0.111793086 0.22669317 -0.095749885
000010 b8 a5 40 3e 95 a9 37 3e fe f4 1c 3e 7c 19 1c 3e
       0.18813217 0.17935784 0.15327832 0.15244097
000020 33 85 6e 3d f2 72 0c 3e 13 e8 0f be e3 81 c4 3d
       0.058232497 0.13715723 -0.14053373 0.095950864
000030 eb 3e a9 bc 0c 15 e7 bd 97 0f cd 3d 80 df 8f 3e
       -0.020659884 -0.11283311 0.10012739 0.28100204
000040 03 4f 79 3e c1 3c 20 bd 97 61 1a 3e 91 21 0d be
       0.24346547 -0.03912044 0.1507629 -0.13782336
000050 99 94 dc 3d 07 83 70 3e 30 1d 46 3e 34 cb 00 be
       0.1077053 0.23487483 0.19347072 -0.12577516
000060 d7 be 82 3e 18 23 e3 bd a5 e6 11 3c aa 0a ad 3d
       0.25536224 -0.11090678 0.008905088 0.084493
000070 bf 83 72 be 16 34 72 3e d3 ed aa 3c db de 85 3d
       -0.2368307 0.23652682 0.020865357 0.06536647
000080 2f bb 7e be 73 c9 f3 3c 3a 5b 9c 3d ac c0 42 3e
       -0.24876092 0.029759144 0.076345876 0.19018811
000090 20 33 4b 3e 8b 53 0b 3e ec e9 5b 3e 12 fa 81 3e
       0.19843721 0.13606088 0.21475953 0.253861
0000a0 e5 55 55 3e 55 0a c1 bd ff ab 16 be 0d 25 cd 3d
       0.20833547 -0.09425799 -0.14714049 0.100168325
0000b0 2d 8a 3f 3e 4c f2 a8 3e c4 43 07 3d 1a 04 86 be
       0.18705054 0.32997358 0.03302361 -0.26175004
0000c0 8b 31 59 3e ca f5 2c 3e 5a 51 34 3e ab 97 14 be
       0.21210305 0.16890636 0.17609158 -0.14510982
0000d0 23 07 88 bb d3 30 1a 3e 8b e0 05 3e 40 36 5b 3e
       -0.0041512414 0.15057687 0.13073938 0.21407413
0000e0 f1 11 14 be 18 70 64 3e 2b f3 96 3d 8e 18 4b 3e
       -0.14459969 0.22308385 0.07370599 0.19833586
0000f0 ba 28 16 3d f1 47 c7 3d 0c 00 5f 3d f7 e7 34 3e
       0.036659934 0.097305186 0.054443404 0.17666613
000100 b4 ad ff 3d d3 1e 22 3d 72 6b 17 bc 04 06 bd bd
       0.12484303 0.039580178 -0.009241926 -0.09229663
000110 ea 5c 14 be a6 a5 0b be 5d 0d 07 be b8 0f 57 3e
       -0.14488569 -0.13637409 -0.13188691 0.2100209
000120 a8 71 cc 3d 72 4e 80 bd 87 0f 03 bc 03 c4 48 be
       0.09982616 -0.06264962 -0.0079993075 -0.19606023
000130 6f b4 be 3d ab 71 65 3d 25 30 a6 3d f5 06 42 bb
       0.09311759 0.056016605 0.081146516 -0.0029606197
000140 ca d0 4c be 77 9c 9e 3d 2b 56 82 3d c8 1e 80 be
       -0.20001522 0.07744687 0.063640915 -0.25023484
000150 f6 cc 5d 3e b0 d3 0e 3e 36 f8 fc 3c 27 ca 9e bd
       0.21660218 0.1394794 0.030880075 -0.07753401
000160 fe be af 3d 7b 42 34 3e d5 e9 f6 3d 7c 28 96 be
       0.08581351 0.17603485 0.12056319 -0.29327762
000170 96 92 57 3d 35 b9 83 3e f8 35 1f 3e ac a7 92 3e
       0.05263003 0.2572724 0.15547931 0.28643548
000180 05 a5 8a 3e d9 56 8b bd 15 b3 08 3e 0a e6 7e 3e
       0.27079025 -0.06803674 0.13349564 0.2489244
000190 49 d3 33 3e 61 b8 39 be d5 e6 29 bd 31 82 14 3e
       0.17561068 -0.18136741 -0.041479904 0.14502789
0001a0 94 6d 81 be 53 91 23 3d 27 48 9d 3e 00 cb 51 3e
       -0.25278914 0.039933514 0.3071911 0.20487595
0001b0 de 3f 85 3e 15 65 89 bd 80 00 21 3d 70 55 16 be
       0.2602529 -0.06708733 0.039307117 -0.1468103
0001c0 6b c0 67 be 85 2c 81 3e 22 5b 83 3e fb d2 7e 3d
       -0.22631995 0.25229278 0.25655466 0.062212925
0001d0 ce 77 b3 3d 1e 8e 21 3e b7 a5 78 be 9e cc 03 3d
       0.08763085 0.1577687 -0.24281965 0.03217756
0001e0 77 cb 7c 3e 67 cd 2b 3d 2e 7d 95 3d 90 83 27 3e
       0.2468699 0.041943934 0.07299267 0.16358781
0001f0 e1 8a 90 3e e6 3e 6d be c0 41 7e be 2a 13 50 3e
       0.28230956 -0.23168525 -0.24829769 0.2031981

heads.0.weight f4 [2, 128]
000000 2a 1b 1f bf cf 68 ce be c7 c9 0c bf 27 42 29 3f
       -0.62150824 -0.40314338 -0.5499539 0.66116565
000010 3e 4d 04 bf a4 ff b4 3c 43 1b 21 be 1c a1 03 bf
       -0.5168036 0.022094555 -0.15733056 -0.5141771
000020 88 7f 67 be a9 c3 f5 be 52 e3 15 3b 6e b0 bf be
       -0.22607243 -0.4800084 0.002287109 -0.37439293
000030 8b 8b b1 be 07 d3 23 be 8c 01 40 bd 37 84 1a bf
       -0.34676775 -0.1599847 -0.046876475 -0.60357994
000040 6f 10 fc be 9c ad 01 3b 5c 37 91 be 1e 1d b9 3e
       -0.49231288 0.0019787317 -0.28362548 0.36155027
000050 ea 4c 05 bf aa 72 b7 be 3a d6 40 bf b1 48 e2 3e
       -0.52070487 -0.3582967 -0.75326884 0.44196084
000060 54 ec ad be c7 65 ca bb c1 db d6 be 3e 0e 1d 3c
       -0.33969367 -0.0061766836 -0.41964534 0.009585915
000070 96 ee d0 3e e0 1c 38 bf 54 b0 50 bc b2 26 e2 3c
       0.40807027 -0.7191906 -0.012737352 0.027606342
000080 33 ef bd 3e ea 80 f1 3e 00 83 e4 be c1 1b de be
       0.37096557 0.47168666 -0.44631195 -0.4338055
000090 04 86 ce be e9 40 34 be 1f e3 bf be 29 ea a6 bd
       -0.4033662 -0.17602886 -0.37477967 -0.08150131
0000a0 93 ab cc be 6c f8 81 bd fa 48 38 3f 48 6e 0e bf
       -0.3997465 -0.06346211 0.71986353 -0.55637026
0000b0 cc 90 d4 be e8 eb 35 bf 65 f8 9b be 6b b9 1a 3f
       -0.4151672 -0.7106309 -0.30462947 0.60439175
0000c0 32 3d 09 bf 1d 9a ac be 7c 70 59 bc 1a 21 8e bc
       -0.53609 -0.3371133 -0.013271447 -0.017349768
0000d0 3b f4 7f 3d 51 94 26 bf 4f 9d 06 bf a1 db 97 be
       0.062488776 -0.6507006 -0.52583784 -0.2965975
0000e0 49 df bd bd 91 57 f8 be 9a 7a 03 bf b7 36 04 bf
       -0.09271104 -0.48504308 -0.5135895 -0.5164599
0000f0 d7 08 0b bc 25 c3 c7 be 0a 2d a4 be a6 3a 7e be
       -0.008485994 -0.3901607 -0.32065612 -0.2482706
000100 7f ba eb be 07 30 94 be 80 d2 ed be 8a 24 8f 3e
       -0.46040723 -0.28942892 -0.4644966 0.27957565
000110 5a 2e fa 3e f8 20 b8 3e a4 53 9d 3e 7d 7c 1a bf
       0.48863488 0.35962653 0.30727875 -0.60346204
000120 9a b7 8c be 63 25 61 3e 89 e6 c0 be 78 09 0d 3f
       -0.27483827 0.21986918 -0.37675884 0.55092573
000130 03 8d c3 3c 67 14 0d be 30 74 e1 be 96 d3 d2 be
       0.02387095 -0.13777314 -0.44033957 -0.41177052
000140 0b 25 db 3e 31 92 d8 be 04 3d ec bd 1a 64 a0 3e
       0.428017 -0.42299035 -0.11535075 0.3132637
000150 73 49 c7 be 5c ff 1d bf d0 04 02 bf 50 ad 15 3e
       -0.38923225 -0.6171777 -0.50788593 0.14616895
000160 03 ce 4d bd 1c 37 9c be e6 d5 3d be 2f 86 09 3f
       -0.050245296 -0.30510795 -0.18538627 0.5372037
000170 06 af ec be b9 c2 2a bf 81 17 2b be 98 0f ff be
       -0.46227282 -0.66703373 -0.16708185 -0.49816585
000180 c7 ea 30 bf 48 3f 13 be 41 3b 7d be 22 5e ca be
       -0.6910824 -0.14379609 -0.24729635 -0.39524943
000190 5f af 29 bf 81 5f b3 3e 23 e9 a2 3e 02 81 9a be
       -0.6628322 0.350338 0.31818494 -0.3017655
0001a0 eb ae e3 3e da ca 80 be 97 ea 01 bf c8 5f 1b bf
       0.4446939 -0.25154763 -0.5074858 -0.60693026
0001b0 68 a9 0b bf 5e 51 6b 3e 39 df 3a bc 8d 49 7c 3e
       -0.5455537 0.22980258 -0.0114057595 0.24637432
0001c0 7f 21 c5 3e 38 87 ba be 20 64 fe be 86 8a 0f bd
       0.38502118 -0.3643129 -0.49685764 -0.035044216
0001d0 fe 5c 89 3c dd 73 dc bd b6 b7 3d 3e ae 9d e6 be
       0.016767975 -0.10764287 0.18527111 -0.45042175
0001e0 5b ad 6a be 50 29 94 bc 29 01 5c 3d 53 af 9f be
       -0.22917692 -0.018086106 0.053712044 -0.3118845
0001f0 3a 67 43 bf 2c b9 b2 3e 05 6b ad 3e 5a 91 71 be
       -0.76329386 0.349069 0.33870712 -0.23590603
000200 df 9c 24 3f e1 8f fa 3e b9 a6 25 3f a5 91 1e bf
       0.64301866 0.48937896 0.64707524 -0.61940986
000210 8d e0 00 3f bd 24 12 3d 5e 9a 46 3e 80 43 ba 3e
       0.5034264 0.035679568 0.19394824 0.36379623
000220 e8 5b f1 3d fa 3c d5 3e f4 55 f8 bd 78 72 f8 3e
       0.11785108 0.41648084 -0.12125769 0.48524833
000230 8c 68 67 3e 0a 52 2d 3e 14 57 4f bd 37 d4 13 3f
       0.22598475 0.16925827 -0.050620154 0.5774569
000240 ce 73 19 3f 11 e5 77 bc ac 1c 96 3e 0f 8f 97 be
       0.5994233 -0.015130297 0.2931875 -0.29601333
000250 c6 10 d0 3e e1 8c ba 3e da 66 1d 3f 02 e5 9e be
       0.40637797 0.36435607 0.61485064 -0.31034094
000260 d8 f6 e2 3e f9 50 92 3d c3 f9 b6 3e 00 f3 37 bd
       0.44328952 0.071443506 0.35737428 -0.044909477
000270 32 43 e5 be f9 dc 3e 3f 44 17 fd b9 a6 09 5c bd
       -0.44777828 0.7455593 -0.00048273255 -0.05372014
000280 97 25 a1 be 04 b2 d2 be 2a 31 a4 3e c5 9a b7 3e
       -0.3147399 -0.4115144 0.3206876 0.35860267
000290 26 20 f9 3e d2 60 1a 3e 12 3f 98 3e e7 d5 ae bd
       0.4865734 0.15075997 0.2973562 -0.085368924
0002a0 98 bd bf 3e 38 0e 55 bd 65 5e 32 bf 8f a6 06 3f
       0.37449336 -0.052015513 -0.69675285 0.525979
0002b0 3c 38 03 3f 02 a7 19 3f be c6 a6 3e f6 d0 12 bf
       0.5125768 0.6002046 0.32573503 -0.573501
0002c0 c4 29 f1 3e c7 94 cc 3e 85 99 15 bd 1c cc e0 3d
       0.47102177 0.39957258 -0.03652336 0.10976431
0002d0 f5 b3 5a bd 50 3f 34 3f 6f a9 e4 3e 10 a7 b4 3e
       -0.053394277 0.7040911 0.44660518 0.3528371
0002e0 8b 1e 1d 3c ea fe f5 3e e5 10 2a 3f bf ca 06 3f
       0.009589802 0.48046046 0.6643203 0.52653116
0002f0 4f 8c 0b 3d 8d 5d c8 3e e8 10 52 3e a1 df a0 3e
       0.034069356 0.39133874 0.20514262 0.31420615
000300 fd 0b da 3e a0 6c b4 3e 29 3c df 3e 8a 7e b5 be
       0.4258727 0.35239124 0.43600586 -0.35448104
000310 f1 98 03 bf 8a 04 af be d1 6c ba be e5 8a 19 3f
       -0.51405245 -0.3418315 -0.36411145 0.5997756
000320 e1 0a c2 3e 5f 57 95 be 7a 36 d5 3e b7 a0 c0 be
       0.37898925 -0.2916822 0.41643125 -0.37622616
000330 6f 71 aa 3c de 05 9d bc 26 9d d5 3e ff b7 b4 3e
       0.020806042 -0.019167837 0.41721457 0.35296628
000340 7d c2 c9 be 34 75 d8 3e 57 ba 8e bc 6f 3a 89 be
       -0.39406195 0.4227692 -0.017422838 -0.26802394
000350 b9 a6 c2 3e 6a c3 04 3f fd 06 11 3f a7 bd 4f bd
       0.38017824 0.5186068 0.5665129 -0.050717976
000360 7d a0 86 bd 38 16 a3 3e 4e b3 a3 3d e5 99 f5 be
       -0.065735795 0.3185289 0.07993184 -0.47968975
000370 c0 55 dd 3e c8 d0 29 3f 30 1d 73 3d a9 4b f3 3e
       0.43229485 0.663342 0.059354007 0.47518662
000380 84 b4 25 3f b8 f6 e1 3d 4d f4 b2 3e 8d d8 cf 3e
       0.6472857 0.11033386 0.34952012 0.40594903
000390 74 8c 1a 3f d8 a1 c0 be 25 63 a1 be 8d 51 b0 3e
       0.60370564 -0.37623477 -0.31520954 0.34437218
0003a0 87 da f1 be 16 79 04 3e fb fb e3 3e 7f 63 1d 3f
       -0.47237036 0.12936816 0.44528183 0.61479944
0003b0 ef bd fb 3e 4b 5c 5b be 90 36 e0 bd 81 15 89 be
       0.49168345 -0.21421926 -0.10947907 -0.2677422
0003c0 5e 15 9a be 7a a6 c7 3e ef be 11 3f 39 87 99 3d
       -0.30094427 0.389942 0.56931967 0.07496495
0003d0 4d 97 a0 bd 6b 0c c8 3d 13 88 88 be ff ef bd 3e
       -0.07841358 0.097679935 -0.26666316 0.37097165
0003e0 b1 09 13 3e ec 41 68 ba 5b ba bf 3c 95 0f 4a 3e
       0.14359166 -0.0008859921 0.02340429 0.19732507
0003f0 eb 88 3d 3f e4 4c 02 bf 83 39 aa be a6 84 6e 3e
       0.74037045 -0.50898576 -0.33247003 0.23292789

heads.0.bias f4 [2]
000000 76 5b d6 bd fa 7b 2e 3e
       -0.104666635 0.17039481

heads.1.weight f4 [2, 128]
000000 33 aa f5 3e e8 20 12 bd af 5d 69 bd fa 8f 58 be
       0.47981414 -0.035675913 -0.05697411 -0.21148673
000010 50 3d 81 3d 87 37 27 bf 4d 2c bd be ba 11 98 3e
       0.063105226 -0.65319103 -0.3694786 0.29701024
000020 b9 2a b9 be 9e 0a 65 3f 41 19 9f be cf 34 14 3e
       -0.36165407 0.89469326 -0.31073955 0.1447327
000030 8e 9e de 3e c7 1c 53 3e da ee 75 bf 70 6d 2e bd
       0.43480343 0.20616446 -0.96067584 -0.042584836
000040 a2 eb a5 bb a2 ac 2e bf e9 cc 37 be ef a7 ce bd
       -0.00506349 -0.68232167 -0.17949261 -0.100906245
000050 e3 66 98 3e f3 b8 c9 3c d3 0d 44 3e 03 01 8c be
       0.29765996 0.024624323 0.19145899 -0.27344522
000060 be 2f 62 be 89 9d 5e bd 7f 1c 38 3f 2a fb 73 bf
       -0.22088525 -0.054349456 0.7191848 -0.9530512
000070 6f 6a a4 bd 01 92 c2 3b 03 83 3c bf 9f 84 33 bf
       -0.08028113 0.005937815 -0.7363741 -0.7012424
000080 ad 68 a5 be c9 02 15 be 68 e9 11 3f dd a7 b0 3e
       -0.32306424 -0.14551844 0.56996775 0.3450307
000090 69 7e c7 be c4 18 ae be c1 53 af be ec 80 2b bf
       -0.3896363 -0.3400327 -0.34243587 -0.66993594
0000a0 a0 30 c5 3d a0 67 72 bd d4 3e 8f be 28 5b e1 3e
       0.09628415 -0.059180856 -0.27977622 0.4401486
0000b0 4f 0a 7f bd ff 25 b9 bd cc b4 43 3f cf c0 89 be
       -0.06226569 -0.0904045 0.7644775 -0.26904914
0000c0 f1 03 0e be 39 24 5e be de 81 09 bf 51 06 a2 3c
       -0.13868691 -0.21693505 -0.53713787 0.019778403
0000d0 26 37 b1 be e9 e3 dd 3e 30 f6 45 3d 1e 1d 0a bf
       -0.34612387 0.43337944 0.048330486 -0.5395068
0000e0 cc da 4f 3d 75 cc d9 3e 9c cf b1 3e 93 58 c6 bb
       0.05074577 0.425388 0.34728706 -0.0060530393
0000f0 9e f2 ef be a3 34 df be 67 05 fc be c6 5e 70 be
       -0.4686479 -0.43594846 -0.49222872 -0.23473653
000100 04 6c da 3e a3 39 40 3f cd 7e 69 3e a9 12 95 be
       0.42660534 0.75087947 0.22802277 -0.291158
000110 70 47 64 be 1c b9 9e be 45 83 b1 3d 19 fc c7 bd
       -0.22292876 -0.31000602 0.08667616 -0.09764881
000120 26 52 23 3f 4f 53 71 be 50 d3 5e 3f 98 12 9b be
       0.63797224 -0.23566936 0.8704119 -0.30287623
000130 68 3c 4c bf 74 d3 27 bf 96 9c ad 3e b7 ed 55 3f
       -0.7977967 -0.65557027 0.33908528 0.8356585
000140 13 a2 6e be ce bb d3 3e cc ea 29 bf 2d 80 88 be
       -0.23304014 0.4135422 -0.66373897 -0.2666029
000150 95 e8 29 be d9 c9 c1 3d 2d 78 25 3f 9c a6 88 be
       -0.16592629 0.094623275 0.646365 -0.26689613
000160 a0 db 18 bf 16 1a db be 60 ff e3 be 4b e6 38 be
       -0.5971012 -0.4279334 -0.44530773 -0.180566
000170 c4 8e 15 3f af 98 b5 3e 6c 0e a6 be c8 ee d1 3b
       0.5842097 0.3546805 -0.32432878 0.006406639
000180 2d a7 62 3d c9 4b ce 3e 47 28 a9 be 5f 60 94 bd
       0.055335212 0.40292194 -0.33038542 -0.07244944
000190 97 7f 9e 3e d7 e7 3c 3d 20 de 97 be 69 0b ce be
       0.30956718 0.046119537 -0.29661655 -0.4024308
0001a0 7e 8d 4d be 65 67 28 be 8b b1 9d 3c 21 16 c7 3e
       -0.20073506 -0.16445692 0.019249698 0.3888407
0001b0 92 a3 59 be 62 d9 1b be 53 5b cb be 63 eb c9 bd
       -0.21253803 -0.15219644 -0.39718112 -0.098593496
0001c0 52 f1 9d bd 07 7f 82 be 07 14 a8 bd 30 06 7d 3e
       -0.07712044 -0.2548754 -0.08206945 0.24709392
0001d0 91 b4 85 bf e4 49 d6 be ec 17 7c be 8b a8 49 3f
       -1.044573 -0.4185325 -0.246185 0.787728
0001e0 12 53 ac be 62 0e 4a bf c3 31 38 bf d8 ae d3 be
       -0.33657128 -0.78928196 -0.7195093 -0.41344333
0001f0 9f e7 8f 3d c7 01 02 3e d2 24 37 be 13 d1 7f be
       0.070266 0.1269599 -0.1788514 -0.24982099
000200 ca 77 12 bf c9 1a 88 3c ba 21 ee 3a 18 3a b5 3d
       -0.57214034 0.016614335 0.001816801 0.08848971
000210 a9 97 d3 bc b1 b1 2e 3f c0 22 9c 3e 4a 56 85 be
       -0.025829153 0.68239886 0.30495262 -0.26042396
000220 35 d2 c7 3e d9 37 7f bf c9 e7 c5 3e 6a b1 d1 bd
       0.39027563 -0.9969459 0.386534 -0.10238917
000230 f2 e1 e4 be d5 18 59 be 86 a3 6a 3f ee ec 52 bd
       -0.44703633 -0.21200879 0.91655767 -0.051495485
000240 7f ab ff bc 01 08 2a 3f 09 d3 0b 3e 41 a0 81 3e
       -0.031209705 0.66418463 0.13654722 0.25317577
000250 68 fe 99 be 4d 61 36 bd 63 57 b1 bd 77 40 93 3e
       -0.3007691 -0.044526387 -0.08659246 0.2876012
000260 dd 64 92 3e 0b 46 8c bb f1 be 40 bf 17 a3 6b 3f
       0.28592578 -0.0042808107 -0.75291353 0.9204573
000270 bc 88 30 3e 67 48 2d bd 43 20 3a 3f a5 e4 30 3f
       0.1723966 -0.042305376 0.7270548 0.69098884
000280 34 b9 a7 3e 34 32 97 3e e4 bd 18 bf 2e 0c 73 be
       0.32758486 0.2953049 -0.5966475 -0.23735115
000290 db 5b 8c 3e 03 4e dc 3e cf c5 8a 3e 65 ab 23 3f
       0.2741383 0.43028268 0.2710404 0.639334
0002a0 fa e1 dc bb e6 e4 2a bd 6a 35 7c 3e 27 0a cd be
       -0.0067408057 -0.0417222 0.24629751 -0.40046808
0002b0 20 e3 8d 3d a1 37 70 3d c7 72 43 bf 33 44 62 3e
       0.06928086 0.0586468 -0.7634701 0.22096328
0002c0 1c 1c d5 ba 7b ea 40 3e 09 e7 19 3f 61 cf 99 bd
       -0.0016258988 0.18839447 0.60118157 -0.075102575
0002d0 6a 26 c5 3e f4 b5 b2 be 7d 85 13 3d 88 f2 cb 3e
       0.3850587 -0.34904444 0.036015976 0.39833474
0002e0 8c a4 92 bc 95 a7 00 bf 33 be be be a6 72 98 bc
       -0.017900728 -0.5025571 -0.37254485 -0.018609356
0002f0 ad 53 03 3f db 7b 93 3e 12 27 db 3e 8b 0a 87 3e
       0.51299554 0.28805432 0.42803246 0.2637523
000300 bd e7 bc be 94 96 50 bf 58 cb 72 be ee fc 84 3e
       -0.36895552 -0.81479764 -0.23710382 0.2597422
000310 ec b5 8b 3e 50 b7 74 3e f7 3e 8b bd c2 f4 c9 3d
       0.27287233 0.23898053 -0.06799119 0.09861137
000320 95 7e 23 bf f9 31 9d 3e 12 4d 65 bf 63 ef 5c 3e
       -0.63865024 0.3070219 -0.89570725 0.21575694
000330 6f 4b 4a 3f 7f 92 12 3f b9 3f a0 be d3 78 75 bf
       0.7902135 0.57254785 -0.31298617 -0.9588749
000340 b0 2d 70 3e 1c ef f4 be cd 29 16 3f f9 43 73 3e
       0.23454928 -0.47838676 0.5865753 0.23756398
000350 6b 92 9d 3e d7 ae 5d be 64 c2 17 bf b0 4b a5 3e
       0.3077577 -0.21648727 -0.5928099 0.32284307
000360 0d 96 0e 3f 4d eb 89 3e 8b 8d c3 3e f1 a9 6e 3e
       0.5569771 0.26937333 0.38193926 0.23307015
000370 de 8f 27 bf fc e1 84 be c5 84 b8 3e 62 73 7d bd
       -0.654539 -0.25953662 0.36038795 -0.061877616
000380 7b 24 a7 3d 32 16 be be 2e 2a df 3e 10 73 0c 3d
       0.08161255 -0.3712631 0.43586868 0.03428942
000390 bd 06 93 be d9 9b 8d bd 63 b8 a5 3e 07 eb c6 3e
       -0.28716078 -0.06914491 0.32367238 0.38851187
0003a0 c7 65 b4 3d b3 63 95 3e b1 35 18 3d fb 46 f2 be
       0.08808475 0.29177627 0.03716058 -0.4731978
0003b0 42 f5 2f 3e ec 69 92 3d de fd f5 3e 6f 22 5a 3e
       0.17183402 0.07149109 0.48045248 0.21302198
0003c0 d6 3e 58 3e f8 0d 63 3e 60 b4 3a 3d 72 f9 5f be
       0.2111772 0.22173297 0.045582175 -0.218725
0003d0 83 9a 87 3f f9 66 d9 3e 69 dd 5e 3e 43 52 44 bf
       1.0594028 0.42461374 0.21764149 -0.7668802
0003e0 3f 8b b9 3e e6 9f 4e 3f 16 cf 21 3f 21 37 e3 3e
       0.3623905 0.80712736 0.63206613 0.44377998
0003f0 67 26 11 3c 08 35 3a be 17 46 91 3e 5f d0 9a 3e
       0.0088592535 -0.18184292 0.28373787 0.302371

heads.1.bias f4 [2]
000000 f1 d5 0b be de f5 cf 3d
       -0.13655831 0.10154317
